models/mcnn_ckpt.pth (torch, 171079 bytes, 10 tensors)

weight f4 [32, 1, 2, 2]
00000000: 5c85 dcbe 04f7 87be b1c9 483e 2219 8bbe
00000010: d3a6 123e 191a e9be 62b3 653e c666 82be
00000020: 7732 e0be 73e2 adbe becb d33e fd9f 51bd
00000030: ad16 df3e 4744 8a3d 96c9 e0be 75e3 0a3e
00000040: f08c ad3d e5b1 a43e 3d6e 01bf 291a 3c3e
00000050: afb2 82be cd67 553e 0e14 14be e9fd 3fbe
00000060: e2ee 55bd fcc2 823d 4861 07bf 72cd dabe
00000070: 434d 9c3c f464 9a3e 9a71 d4be 6557 55be
00000080: 5580 1d3e 1ef1 b3be 63f3 2a3e aba6 fe3d
00000090: f5a7 813e 2395 be3e 5a4b 9abe 7960 f9be
000000a0: 59c9 11be f297 c2be b90a d2be cfd3 70be
000000b0: 3e13 573e 4e69 62bc 0b6e 84bc 4621 d4be
000000c0: ebd3 8cbe 97f8 b23e e8e0 d33e 27b9 b8be
000000d0: 8a4e 853d bf91 9a3c d765 973e f166 19be
000000e0: 4a5a e2be 748c bb3e 6254 cfbd 3df9 2abe
000000f0: 58d2 f43d cb71 12be 0cd0 63bd 0b48 c73d
00000100: 9af4 123e fca2 ccbe cdfb e23e 8c61 1ebe
00000110: cb76 e9be 4b62 6abe aba7 aabd 8d03 673e
00000120: ced0 dabe 51e1 ae3e b4d0 233b 7385 9abd
00000130: 38a1 ab3e 3b1f cabd 1533 4c3e c11e c23e
00000140: 2dae 1a3e 7f1b 1e3e aa5e b2be 449f 033e
00000150: 5d0b a73e ae41 073e 51ae 543e 43ac c3be
00000160: 271f d93e 9882 91be 1147 89bb 424f 993e
00000170: 1792 c8be e862 bdbe 26b3 a7be 29f6 03bf
00000180: cabb a1be a823 35bf 77e7 b1be b322 55bf
00000190: 8688 e93e 819c d83d 3b1c fabe 7aac 28bd
000001a0: 96b1 afbe c440 babe 6332 103c 988c e93e
000001b0: 4df1 bb3e 9ca6 ed3c a763 983e b00b 2abe
000001c0: e995 81be e33b db3e 0d27 d23e 9efd 90be
000001d0: 8b19 ee3d 6952 0bbe 1005 e1be 1592 823e
000001e0: e213 29be f601 edbd 864c 373e 0e36 e93e
000001f0: 4747 aebd 8ca4 f9be 9221 463e 9d8b 273e
-0.43070495 -0.26555645 0.19608189 -0.27167612 0.14321451 -0.45527723 0.2243171 -0.25469035
-0.43788502 -0.3396183 0.4136638 -0.051177967 0.43571988 0.06751304 -0.43903798 0.1356333
0.08474147 0.32166973 -0.50558835 0.18369354 -0.2552695 0.20840378 -0.14460775 -0.18749203
-0.05222977 0.063848466 -0.52882814 -0.42734867 0.01907981 0.30155146 -0.4149292 -0.2083412
0.15380986 -0.35144895 0.16694407 0.12434133 0.25323454 0.37223157 -0.30135614 -0.48706415
-0.14236964 -0.3800655 -0.41023806 -0.23518299 0.21003434 -0.013819052 -0.016165754 -0.41431636
-0.2750543 0.34955284 0.41382527 -0.3607876 0.06509121 0.018868325 0.29569885 -0.14980675
-0.4420951 0.36630595 -0.101235166 -0.1669664 0.119541824 -0.14301221 -0.05561833 0.09730538
0.1435112 -0.39968097 0.44332734 -0.15466899 -0.45598444 -0.22889058 -0.083327614 0.22559948
-0.4273743 0.34156278 0.0024996223 -0.07544985 0.33521438 -0.09869238 0.19941361 0.37914088
0.15105505 0.15440176 -0.34837848 0.12853724 0.32625857 0.13208649 0.20769621 -0.38217363
0.4240658 -0.28419948 -0.00418938 0.2994328 -0.39173958 -0.36989522 -0.32753867 -0.51547486
-0.31588584 -0.7075753 -0.34746906 -0.8325607 0.45611972 0.10576726 -0.48849663 -0.04118011
-0.34315175 -0.36377537 0.008801076 0.45615077 0.36707535 0.02901011 0.2976353 -0.16606021
-0.25309685 0.42819127 0.41045418 -0.28318495 0.11625966 -0.13605656 -0.43949175 0.25502077
-0.16511491 -0.1157264 0.17900285 0.45549053 -0.08509689 -0.48758352 0.19348744 0.16361852

bias f4 [32]
00000000: a681 ed3e 3265 013f 5edd 053e 6497 03bf
00000010: ee9c c73e 706a ca3e b011 423d b89c 223d
00000020: 7ca0 2a3c ac5f 9fbc 37d3 e7be 67d1 d8bd
00000030: 067e 913d 3f5f 02bf 8d6a 083f 3f38 f1be
00000040: 8676 c33d 66f3 34bb ad5a cd3e b30d 0dbf
00000050: 7a4e 46be 8f23 0fbe 5592 58be 80b4 3a3f
00000060: 17da d73e 150f 603e e67f af3e 45a4 1bbf
00000070: 037d f93e ac43 243f 2757 f63e 6280 d9bd
0.46387976 0.50545037 0.13072726 -0.5140288 0.38986915 0.3953433 0.04738015 0.03970024
0.010414239 -0.0194548 -0.45278332 -0.10586815 0.07104115 -0.50926584 0.53287584 -0.47113225
0.09544091 -0.0027610897 0.40108243 -0.5509903 -0.19365874 -0.13978408 -0.21149571 0.7293167
0.42158577 0.21880753 0.34277266 -0.6079753 0.4872819 0.6416576 0.48113367 -0.1062019

weight f4 [64, 32, 2, 2]
00000000: 649c 05bd e79f 823d 107f f0bd 33c9 3ebd
00000010: 90f6 af3c 518c b5bd 214a 11bd c391 253d
00000020: 3d39 aa3d 51e1 f53c a605 2a3d 30de 55bd
00000030: 6e6f aabc e752 483d 04d3 99bd 0954 d8bb
00000040: bdc4 a33d 5383 bf3b 07bd 32bd 7425 693d
00000050: 6715 81bd 7558 edbc ac56 93bd bb7f ecbc
00000060: a1ee 143e 6913 993d 49c1 423d 2be5 3c3c
00000070: 23a1 dfbd 9fc1 c1bd c7fb ccbd 6d9e cfbd
00000080: de2f 01bd 420b a2bd 09bb e83c ff0b 8a3d
00000090: c8f6 dfbc 269b b43d 234b e3bd 963e e83c
000000a0: c57a 5fbb 2468 91bd 8121 43bd e40d 94bc
000000b0: ce77 1d3c ef44 98bd ea9a 693d a3a8 513d
000000c0: cc49 a1bd 2ccd 1f3d 54d9 c13d d2d0 cebc
000000d0: a042 883d 4ad2 413d ad29 64bd ba72 28bc
000000e0: 7e76 8cbd 692c e13c 0391 b83c 8d39 953d
000000f0: b4ae 59bd 2e04 b13d 978c babc 1934 fabb
00000100: 3daa 543d 49b4 84bd 5bb8 24bd c722 22bc
00000110: a544 27be 7014 c93c d001 7dbd e45b 2dbc
00000120: 49ac ae3c 10c6 993d 55b3 33bd a3a4 903c
00000130: cb2a c03b 6787 82bd 6a2f a33c 152f 2cbd
00000140: 590c 03bd 3b01 6c3b 77bb 753d a9a3 85bb
00000150: 9227 a33a 3ba4 ae3c 7a0c 3ebd f8f2 db3c
00000160: 33e4 893d 4d6e debb 5895 873d fa0f 8bbd
00000170: 4367 8a3d 795d 87bd ed7f 2c3d 5e23 3abd
00000180: 4acc 5abc 9185 513d cc91 aabc b626 4e3d
00000190: d1ad f73c 7512 00bb 0f4f d2bc 83e2 04bd
000001a0: 8ecf 9fbd 824a d63c 4345 73bc 8bba 7a3d
000001b0: bb50 2e3d 9d66 8ebc 5713 8bbd 1cb5 4a3d
000001c0: 6e70 ca3d 1746 57bd 50e6 2c3c 26fc 8ebd
000001d0: dbc5 5ebd 28eb 903d e32c 08bd a833 c3bb
000001e0: 139f 483d f9a0 903b e7c3 863d 854d 5abd
000001f0: 72d4 513d 96e7 f33c 70f4 933c 6329 97b7
00000200: a815 a23d 4950 f43b ebd9 18be e66f e4bd
00000210: 233f 2abd 8e8d 283d 70f7 24ba d96d 463d
00000220: 4b8a 7d3d 07b4 95bd fb1f c63d a1d7 38bd
00000230: c287 4f3d 5a39 afbc 3c14 54ba 3c31 88bd
00000240: 7e08 e03c ec89 703d 1630 503d 8abf a13c
00000250: 7012 b43d 0478 163b 411d 643d c950 383d
00000260: 82b6 23bd f7fc 93bd 712f 80be f6af fa3d
00000270: c68a 2b3c 01b9 b63d 98b2 76bd 1998 cc3d
00000280: 17b5 20bd 2adb 9b3d c770 28bd 2d0b 873c
00000290: 850e 83bc d450 8a3d e2a1 8e3d 83ff bd3c
000002a0: 7dab 4b3d ff2f a4bd c51d 6f3d d09a 0a3b
000002b0: 5a5b 9cbd a1b6 ca3b 36b2 82bd 17eb 8abc
000002c0: fc7d e1bd 56f6 7ebd 4d5a bd3d 182c ac3b
000002d0: 31d8 85bd 48b1 9c3c 2864 66bd 6bb6 7abd
000002e0: dd98 193c 0d15 613d bdaa 883d 2f20 d23d
000002f0: 7649 a13d cc11 9ebd 8ebf 5b3d 5ad7 3f3d
00000300: b1e1 813d 1dd7 27bd cacf 433c 8191 bd3d
00000310: 399b 073e 9f53 18bb f248 c73d 6427 a3bc
00000320: 3f6c 99bd 579e 2e3d cbb6 5fbd 1c90 6dbd
00000330: ac93 8dbd c7b5 07bd ffd1 3e3c 1d56 70bd
00000340: 0ac3 82bd a5db 7dbd e13b 7bbd 3576 32bd
00000350: d400 0ebd f7d3 8abd ac02 e43b 48b1 8b3d
00000360: a7be 3fbd 6aec a4bd ec0d 823d b811 18bd
00000370: 03c4 163e 999d adbd 2492 1abe 801e 96bc
00000380: 5911 dc3d 6a63 9c3d 21cb 78be e8de 713d
00000390: 7dca a9bc bde4 4d3b 1309 6ebd cb7c 383d
000003a0: 008b 82bd baeb 43bd 48fc 1e3d a5d3 a3bc
000003b0: f2dd bb3d efc7 90bc 6e19 cc3a 4b1c 04ba
000003c0: c0ac afbc 9c54 8cbd 51e4 9fbd f698 c13d
000003d0: a6f2 8a3d e72e 3a3d 68fd 473d eb96 9abd
000003e0: 9161 afbb 04b0 acbc 883f a43d c0bd c03d
000003f0: 8f99 373b f432 593d e9e2 843d 05fd 0fbc
-0.03261985 0.06378155 -0.11742985 -0.046578597 0.021479875 -0.08864654 -0.035471085 0.040422212
0.083116986 0.030014666 0.041509293 -0.052213848 -0.020805087 0.048907187 -0.07510951 -0.0066018146
0.07996509 0.0058445125 -0.0436373 0.056920484 -0.0630291 -0.028972844 -0.07194266 -0.0288695
0.14544155 0.07474405 0.047547612 0.011529247 -0.10919406 -0.094607584 -0.1000896 -0.10137639
-0.03153979 -0.079123035 0.028409498 0.06740569 -0.027339354 0.08818655 -0.110983156 0.028350156
-0.0034100276 -0.070999414 -0.047639374 -0.01807303 0.009611083 -0.07435023 0.057032503 0.051186215
-0.07875404 0.039014027 0.0946528 -0.025246058 0.06653333 0.047319688 -0.055703808 -0.010281259
-0.06858538 0.027486997 0.022530084 0.072863676 -0.053145126 0.08643375 -0.022772117 -0.007635605
0.051920164 -0.06479699 -0.040214878 -0.009895987 -0.1633478 0.024545878 -0.061769307 -0.01058099
0.021322386 0.075084805 -0.043872196 0.01765663 0.0058644763 -0.06373482 0.01992007 -0.04203709
-0.031994198 0.0036011476 0.059993234 -0.0040783477 0.0012447706 0.021318546 -0.046398617 0.026849255
0.06732979 -0.006788051 0.06620282 -0.06790157 0.06757977 -0.06609625 0.042114187 -0.045443885
-0.01335437 0.05115277 -0.020821474 0.050329886 0.03023425 -0.0019542251 -0.025672464 -0.03244258
-0.0780326 0.026158575 -0.014848056 0.061213057 0.04255746 -0.017382914 -0.06790798 0.049489126
0.098847255 -0.052557077 0.010552958 -0.06981687 -0.05438791 0.070761025 -0.033245932 -0.0059570856
0.04897983 0.0044137207 0.06580334 -0.053296585 0.051227994 0.029773515 0.018060893 -1.8019875e-05
0.07914287 0.00745586 -0.14926879 -0.111541554 -0.041564118 0.041150622 -0.00062929746 0.048444603
0.061899465 -0.07309728 0.096740685 -0.045127515 0.050666578 -0.021389652 -0.00080901734 -0.06650016
0.0273478 0.058725283 0.05082711 0.019744653 0.08792579 0.0022959718 0.05569196 0.044998918
-0.039968975 -0.072259836 -0.25036195 0.12240593 0.010470098 0.089220054 -0.060228914 0.09989948
-0.0392352 0.076101616 -0.041123178 0.016484821 -0.015998134 0.06753698 0.069644704 0.023193127
0.04972409 -0.08016967 0.058378 0.0021149404 -0.076346114 0.006186322 -0.06381647 -0.016957803
-0.11010358 -0.062246643 0.09245739 0.00525428 -0.06535376 0.019127503 -0.05624786 -0.061209124
0.009374824 0.054951716 0.06673191 0.10260045 0.0787534 -0.07718238 0.053649478 0.046836235
0.06341875 -0.040976632 0.011951396 0.09256268 0.13242806 -0.0023243201 0.0973071 -0.019916244
-0.074913494 0.042631473 -0.054617684 -0.05799876 -0.06912932 -0.03313234 0.011646747 -0.058675874
-0.06384857 -0.061977047 -0.0613364 -0.043569762 -0.03466876 -0.0677871 0.0069583263 0.06820923
-0.04681268 -0.08052905 0.06350312 -0.037126273 0.1472321 -0.08477325 -0.1509481 -0.01832509
0.10745496 0.07636149 -0.24296238 0.05905047 -0.020726437 0.0031416856 -0.058114123 0.045040887
-0.063741684 -0.04783223 0.038814813 -0.01999838 0.09173192 -0.01767346 0.0015571543 -0.00050396164
-0.021444678 -0.068520755 -0.0780722 0.09453003 0.06784563 0.045454886 0.04882565 -0.075483166
-0.005352207 -0.021080025 0.0801993 0.09411192 0.0028015112 0.05302711 0.06488592 -0.008788352

bias f4 [64]
00000000: 8099 bcbd 9b88 f43d 7f33 0c3e 0c14 21be
00000010: 44e3 bcbe 47a7 1fbe 5165 ae3e 3f5b 05be
00000020: ce73 76bd 6140 883d fbdf 53bd 7a8a 49be
00000030: 0e3d 8c3e 38d6 103e 29f4 c8be e05f 603e
00000040: 9320 0abe 4603 a33b 2db6 93bd b113 c0be
00000050: eead bfbe c4ba 5d3d cbe0 f4bc 9ad9 9dbd
00000060: 4d66 403e 52a0 9bbe 66d1 80be 94cb 27be
00000070: eca4 7abe b40b 56be ef16 7bbe fd4b 433e
00000080: 3f56 ee3c d5e6 47be ad19 a83c b4b1 2e3d
00000090: 3be8 52bd 912d 41be be7d a23e b3d8 00be
000000a0: 5798 533d ee44 1abe 5737 c93e 6fdd 693e
000000b0: 8034 6e3d a547 21bd bd16 bbbc a05a 823d
000000c0: 908c 3f3e 477c 533d f76a 473e 63ed 3f3d
000000d0: 1f8e a33d 9aaf 1ebc a918 96bd 4a38 de3d
000000e0: 0e6c 97bd 7208 e83e 8350 a23c beb8 46be
000000f0: cbbb 713e ed08 0d3e 72bb a1be 6b47 e9bd
-0.09208965 0.11940118 0.13691519 -0.15730304 -0.3689214 -0.15591155 0.34061673 -0.13023089
-0.060169034 0.06652904 -0.051727276 -0.19681731 0.2739033 0.14144218 -0.3924878 0.21911573
-0.13488989 0.0049747555 -0.07212482 -0.37515023 -0.37437385 0.05413319 -0.029892346 -0.0770752
0.18789025 -0.30395752 -0.25159758 -0.16386253 -0.24476975 -0.20902902 -0.24520467 0.19071956
0.02909386 -0.19521649 0.020520056 0.04264994 -0.051491003 -0.18865038 0.3173656 -0.12582664
0.051658954 -0.15065357 0.39300033 0.22838376 0.058155537 -0.039374966 -0.02283799 0.063649416
0.18705964 0.051632192 0.19474398 0.04685725 0.07986092 -0.009685421 -0.07328922 0.1085058
-0.07393657 0.45318943 0.019813782 -0.19406411 0.23606794 0.13772936 -0.31588322 -0.11390575

weight f4 [128, 192]
00000000: 9e7f 08bc d40a 00bd f7e1 ac3c ee60 8d3a
00000010: e4a0 4c3d 1f13 98bb 9d51 18bc 7ccc a23c
00000020: 51b3 59bc 38a8 453d 393b 23bd fd00 cc3c
00000030: 85a9 193c 29a9 533d fa99 6f3d 0b7c cfba
00000040: 1f94 883c f85d 963d 0719 543c 78b4 33bd
00000050: 65c6 72bd ec5e f6bc a3bb 483d 0922 b23c
00000060: 63c0 41bd bf71 ae3c e2e6 2dbd b4db 4f3d
00000070: 07bc 0fbd 2d9b a13c 0014 8a3b 669d ecbc
00000080: c996 573d 6bf2 883c cf45 423d 771c 56bc
00000090: fa52 213c 7c8e 26bd f288 48bd a209 ba3c
000000a0: 9b2e febc cbe9 743c 6dbb debc d2e8 6ebd
000000b0: 7d18 83bd 5ba2 dd3c 6acd e83c 3939 35bd
000000c0: 52fa ce3c a48b 32bd 78b2 94bb 0dc5 53bd
000000d0: 1ee3 8dbd 0107 9b3c c903 37bc 113d aa3b
000000e0: 556e 0f3c 5e25 f93c 70e5 96bd 7928 14bd
000000f0: 5aa1 5a3c 5c8d be3b e1d6 0f3d 5d12 51bd
00000100: 98b9 5b3d b1ee 153d bf4e 5d3b 63aa 09bd
00000110: 5b36 33bd 14f2 073d 5404 9fbc 2d60 de3c
00000120: e030 083d 9373 5a3d da3a e1bc b839 5c3d
00000130: 419a 24bd c71e b5bb 0ac1 293d e7cb 50bc
00000140: e434 e2bc d0ff 62bd e74e 8dbc e351 afbc
00000150: b137 173d b9ad 82bc 00fd 06bd fe73 21bd
00000160: 39a6 bfbb 30b6 7fbd 1485 3abd 3e31 fcbc
00000170: 148f 90bd 5f65 3b3c cdd7 283d eb84 b63c
00000180: 0a1c f03c 9744 3c3d 02cf 8a3c 795c aa3b
00000190: 26a0 76bd dc06 78bd eef3 4cbc ed72 c53c
000001a0: f7f5 39bd df6d 313d 374f aabb 3854 7bbc
000001b0: 7619 173d c130 56bd cf45 60bd 886f 5f3c
000001c0: ae83 143d 4f8c 6fbc c127 8a3b 5be7 58bd
000001d0: 3ca9 7d3d c64a 5e3d 7677 0cbd 4177 513d
000001e0: ee27 1c3c 6c7f 5bbd 4a8a 3cbc b78a 1d3d
000001f0: 2ade 0bbc 0e14 3e3c 449c 94bd 34b3 513d
00000200: 681b 8d3c aced e93c 3098 963d 87fb 203b
00000210: 6f90 82bd 0795 a9bc 96a7 debc 8c42 4fbd
00000220: ea79 cd3c a6a5 873d 395f 77bd 3c7e 9abc
00000230: 7cdc 993d 125c 493d 16c5 26bc 8ab8 0e3d
00000240: 921e 85bd 6d64 253d cd96 283d 80f6 f93c
00000250: 6238 d63c b99d 8e3c 6ea1 243d c08d 4dbd
00000260: 3e40 fc3c 62bc b1bb 5e61 acbc b674 62bd
00000270: bbd3 b0bc 6423 83bb 0963 463b 0bd3 8bbd
00000280: 2040 873d ed8c 6b3c 3cec 563c ccd7 2ebd
00000290: bc09 6bbd 3089 853d dd61 e63c 7bfb 2a3c
000002a0: fb3c 06bd 817b a9bc 225c 60bc 0fa1 3ebd
000002b0: b428 f7bc d212 8c3d 2eb7 a9bc 6fd7 d33b
000002c0: 06a6 25bd 0c71 b53c 3656 05bd 0d62 523c
000002d0: d5d4 61ba 4837 cd3c 5fd9 63bc 5dce bc3c
000002e0: 7b8f 0cbd e114 62bc 168e 42bc 3c4d 6dbc
000002f0: 5cb9 b53b 7ea6 c83b 11bd 673c e1f1 813d
00000300: ac5c 77bd 5d2f 813d 7d6d 123d 22f4 5cbd
00000310: 3cbe 613d 0f4b 48bd c699 253d 3d9b 163d
00000320: 8fa1 e33c dab1 523d 1182 25bd 3add 2bbc
00000330: 006b 933d 9d3b 163d 6d2c 7eba ee67 043c
00000340: e495 8cbc 541b 563c 1d72 f7bb d8f7 953d
00000350: d410 33bd 8dce 1b3d 07fa 60bd 19be 50bd
00000360: 678b be3c 82a4 6d3d 6b83 293d b8db 5f3a
00000370: f1b8 fc3c df71 4ebd 4b9d 373c 19b3 b1bc
00000380: c90f 5bbd 3f83 553d 54a7 6d3d afca 84bc
00000390: d46b 263c b872 a93c ee16 6dbd b628 0c3d
000003a0: 964c a53c 56c9 3e3c 4865 f8bb a41e 743d
000003b0: a72b b03d 8ae3 633c 4032 983c 6bf6 acbd
000003c0: 363c 2fbd 17f4 3b3c 10e8 90bd 2ddc 563d
000003d0: 474b 29bd c14b 523d 5cab 593d 7ffc 053d
000003e0: 9273 f73c 5f28 33bd 710e 80bd 62f1 0b3c
000003f0: f58c 763d f0a9 f13c 69c0 14bd 53eb 973c
-0.008331208 -0.031260327 0.021103842 0.0010786334 0.049958125 -0.0046409513 -0.009296802 0.019872896
-0.013287381 0.04825613 -0.0398514 0.024902815 0.0093787955 0.051674996 0.058496453 -0.0015829814
0.016672192 0.07342142 0.01294542 -0.04387328 -0.059271235 -0.03007456 0.04900707 0.021744745
-0.047302615 0.021294473 -0.042456515 0.050746635 -0.035091426 0.019727314 0.00421381 -0.028883647
0.052634034 0.016717156 0.047429856 -0.01306831 0.009846443 -0.040663227 -0.048958726 0.022709671
-0.031028083 0.014948319 -0.027188981 -0.058327504 -0.06401155 0.027054956 0.028418262 -0.044244025
0.025265846 -0.043590203 -0.0045378767 -0.051701594 -0.06928085 0.018924238 -0.011170336 0.005195268
0.008754333 0.030413326 -0.073679805 -0.03617141 0.013344133 0.005815191 0.035117034 -0.051042903
0.053643793 0.036604587 0.003376886 -0.03360976 -0.04375301 0.033189848 -0.019411243 0.02714547
0.033249736 0.053332876 -0.027493883 0.053765982 -0.04018617 -0.0055273506 0.041443862 -0.012743927
-0.02761311 -0.055419743 -0.017249538 -0.021401351 0.036918346 -0.015951978 -0.032956123 -0.03941726
-0.0058486727 -0.062429607 -0.04553707 -0.0307852 -0.0705854 0.011437743 0.04122143 0.022280177
0.029310245 0.04596385 0.016944412 0.005199012 -0.060211323 -0.060553417 -0.012509329 0.024102652
-0.045400586 0.043317672 -0.0051974314 -0.0153399035 0.036889516 -0.05229259 -0.054754075 0.013637431
0.036258392 -0.0146208545 0.004216165 -0.052955013 0.061928973 0.05427053 -0.034293614 0.05113912
0.009531004 -0.053588316 -0.01150758 0.038462367 -0.008536855 0.011601461 -0.07256368 0.051196292
0.017224982 0.028555714 0.07353246 0.0024563984 -0.06375205 -0.020700945 -0.02717952 -0.050600573
0.025082547 0.06623392 -0.060393546 -0.018859021 0.07512757 0.04916007 -0.010178825 0.03484396
-0.064999714 0.040378977 0.04115944 0.030513048 0.026149932 0.017409192 0.040193014 -0.05018401
0.030792352 -0.0054240683 -0.021042522 -0.055287085 -0.021585336 -0.0040020216 0.0030271432 -0.068273626
0.06604028 0.014376861 0.013117846 -0.04268627 -0.05738233 0.06520307 0.028122837 0.010435934
-0.032773 -0.020688774 -0.013693841 -0.046540316 -0.030170776 0.06839527 -0.02071723 0.0064648907
-0.040441535 0.022148632 -0.03255292 0.01284076 -0.00086147833 0.025050774 -0.013906806 0.02304762
-0.03431652 -0.013798923 -0.011874696 -0.014483746 0.005545778 0.006123363 0.014144198 0.06344963
-0.060391113 0.06307862 0.035748947 -0.05394376 0.055113062 -0.048899706 0.040429853 0.03676914
0.027786998 0.051439144 -0.040407244 -0.010489756 0.07198143 0.036677945 -0.0009695951 0.008081419
-0.017161317 0.013068039 -0.007551445 0.07322663 -0.04371722 0.03803878 -0.054925945 -0.05096254
0.023259832 0.058018215 0.041385096 0.00085395155 0.030849906 -0.050401565 0.011206935 -0.021691846
-0.05348185 0.05212712 0.058020905 -0.016209928 0.010157544 0.020684585 -0.057883196 0.034218512
0.02017812 0.011644682 -0.007580433 0.059599534 0.08602076 0.01390923 0.018578649 -0.08445438
-0.04278203 0.01147177 -0.070755124 0.05245607 -0.041331556 0.051341776 0.053141937 0.032711502
0.030206475 -0.043739673 -0.062527545 0.008541437 0.06019302 0.029499978 -0.03631631 0.018544829

bias f4 [128]
00000000: 3533 e5bd bb18 06be 56a1 58bd 599d f7bd
00000010: 0fb1 43be c6f5 443c 5885 903e 399d b3bd
00000020: bc4e 72bd d0ff 97be 0a2b 60bd 7f87 f7bc
00000030: 8fe3 ef3b a373 463c d438 23bd ddf8 cdbd
00000040: 2997 ab3e 46c2 6bbe 4b1d 883e f8f5 833b
00000050: 757a 863d 88e4 33bc 750d fa3d f8d7 73bd
00000060: 8b9b a63d 91a8 0e3e 8674 d8bc 19e4 e3bc
00000070: 73ec a83c 587f 0bbd 18df 19be 7cb7 b8bd
00000080: b146 21be 8d14 db3e 511f 36bd 1f0b f43c
00000090: e0b9 15be 8ac9 dcbd 8a59 56be 5fcf f7bd
000000a0: cd0c 88bd 2d95 6a3c c3ed 09be 1bfd 7b3e
000000b0: 2105 bebd 9de3 253e 4eb4 56be 208b acbd
000000c0: 63bd 06bb 4483 943d 2973 bfbc f662 47bd
000000d0: 96fa eebc 4d8c c1be d9e9 dd3d 42c4 94bd
000000e0: 51ff 61bd 4ddf 383e 6a23 4bbe 01c2 60bc
000000f0: fa20 943c 3b5c 89bd e491 1e3c 6b80 c1bd
00000100: eb66 87bd c734 c6bd fce4 4c3e dff9 9bbe
00000110: 394b 4dbc d9d1 7abc 21d3 8ebe 1a73 3fbe
00000120: 4b07 3fbd e42c 40be 26bd ba3d 322d 8d3b
00000130: a018 7cbe 04a9 ebbd ab5a 08be 89cc 9dbd
00000140: ea93 023e e787 35be d507 133e d80e 5b3e
00000150: 2ba7 25bd 1cf1 4e3e 8504 c4bd 6f1a e93d
00000160: 1bf0 3c3d f926 bcbd 9cfc 913d 2c18 c2b9
00000170: 1a6f d3bd fccb 3fbd e224 653e ae8a e7bd
00000180: 7411 2a3e ae0a 323e d898 fe3c afc2 b0bd
00000190: ce58 563e b2b7 78bd baae f53e 0610 363d
000001a0: 3a4e 87be a4d9 3a3e 379f 1a3d 528b c53d
000001b0: 7f78 d03e fb53 b9bc cd42 34be 9115 b9bd
000001c0: d22a bbba 71a9 0bbe 699d 73be 9013 16be
000001d0: 77e6 e4bd 8980 1cbe ee3b 943b d640 8ebd
000001e0: 5361 083d 28ea 683d 9d51 76be 3cf6 febd
000001f0: 1c48 dd3d 6c3a 3a3d 8dfc 133e 93d6 e83d
-0.111914076 -0.13095371 -0.052888237 -0.120905586 -0.19110511 0.012021488 0.28226733 -0.08770222
-0.05915712 -0.29687357 -0.054728545 -0.030215977 0.0073208283 0.012112531 -0.039849117 -0.100572325
0.33513764 -0.23023328 0.2658485 0.0040271245 0.065663256 -0.010979779 0.12209598 -0.059532136
0.08135136 0.1393149 -0.02642275 -0.027818726 0.02062056 -0.03405699 -0.1502651 -0.09019372
-0.15749623 0.42789117 -0.04446346 0.02979046 -0.14621687 -0.10780628 -0.20932594 -0.121001
-0.066430666 0.014317793 -0.13469605 0.24608271 -0.09278322 0.16200109 -0.20967218 -0.084249735
-0.002055966 0.072515994 -0.023370342 -0.04867836 -0.029172223 -0.37802354 0.108356185 -0.07263996
-0.05517513 0.18053932 -0.19837728 -0.013718129 0.01808213 -0.06707045 0.009678338 -0.09448322
-0.06611427 -0.09678035 0.20009226 -0.30464074 -0.0125301415 -0.015308821 -0.27895454 -0.18696252
-0.046637814 -0.18767124 0.091181085 0.004308366 -0.24618769 -0.115068465 -0.13315837 -0.077050276
0.12751737 -0.17727624 0.14358456 0.21392381 -0.040442627 0.20209163 -0.095711745 0.11381995
0.04612742 -0.09187121 0.071282595 -0.00037020573 -0.10323925 -0.046825394 0.22377351 -0.11305748
0.1660822 0.17386886 0.031078741 -0.08630883 0.20932314 -0.06072206 0.47984868 0.044448875
-0.2642687 0.18247086 0.037749495 0.09645714 0.4071693 -0.022623053 -0.17603607 -0.090373166
-0.0014279729 -0.13638856 -0.23790516 -0.146559 -0.1117677 -0.15283407 0.0045237457 -0.0694596
0.03329594 0.056863934 -0.2405457 -0.12449309 0.108047694 0.04546587 0.14451809 0.11369052

weight f4 [64, 128]
00000000: d046 243d fef6 e33c 2ea1 c33c 9cc6 a0bd
00000010: cd0c f7bc 4334 443d ac38 993d 85dd 94bb
00000020: 0bba c83b 7351 c93b 65de 353c 57a6 d33c
00000030: cd35 0a3d 9b3a b1bd 740a a7bd d976 46bd
00000040: a087 28bd 0ac7 3a3d ebfe 58be 607e 4dbd
00000050: fad2 bbbd c0d9 1d3d 39ba 853d 45d6 fb3b
00000060: c8fa 84b9 e323 45bd dca2 12bd 9b04 753c
00000070: 1211 5cbd 2539 4b3d 70e2 c2bc 86a7 c2bd
00000080: d520 513d 84b8 213d 2eb9 983c 6aca 8b3d
00000090: c06b 7a3d dc8e 003d ec2f a33c be91 c1bc
000000a0: 64a1 90bd dd07 75bd 31d3 ad3d 6c67 aebd
000000b0: 7c4b 6b3d 23c2 53be f947 803d 8eb6 42bd
000000c0: 4047 9ebd 7dd2 97bd 54dc 68bc d4b7 6c3c
000000d0: 1a83 fbbd 42da 71bd 94b3 a7bd 71fb 0fbd
000000e0: fe8b 76bb b2ec 5a3c 8ba9 9c3d f37d 9f3d
000000f0: 9f4b 90bd 7ee9 ae3b 9a2f f43c 9b34 c13d
00000100: 91d5 a5bb 0216 a7bd c261 cbbd 5b6f b2bd
00000110: 9d6b c5bc 8ee2 dabd 8570 dcbd 614c 4abd
00000120: 7d8b edbd 71cb 7b3d ad1e 5d3d 3476 6e3c
00000130: 22af 8d3d 6488 b43d 77b2 093d 9128 c3bb
00000140: 122e b93b fdcc 10bd f569 0dbd dfed d2bd
00000150: 4600 15bc c6e3 21bd 631f 78bc 0564 693d
00000160: 203d d8bc 2a3a 80bd 7b67 0fbe 5156 513d
00000170: 658c bfbd cfe7 33bd c495 063c cfaf 97bd
00000180: 799c b53d 01e5 a33c 5ff2 cebc 3581 a2bd
00000190: cacd 83b9 fd19 a5bd 28d7 8cbd 56b6 403d
000001a0: 588d 7ebc b63b 88bd 6219 5c3b 4039 3d3d
000001b0: aef2 e7bc c79d ab3c 6a8c 6d3d 4984 0bbe
000001c0: 3399 713c 0dfa 2b3c 6ca7 19bd d29c b0bc
000001d0: 386c 3c3b 03f5 61bd f61f 80bd 5990 3dbd
000001e0: 1d10 4ebd ac67 4bbc 017f 9ebb 82e1 1aba
000001f0: 519f 963c 1542 acbd f90c 05bd cfef c7bd
00000200: c954 24bd dcf2 2abc cae2 603d dcf9 0b3c
00000210: f25e 553d 601e 373c 088f b93c e5ef 46be
00000220: 379d 613d 2e4f 4b3d fc74 3f3d 9058 233e
00000230: 13de a23c 6b00 603d c249 0abc 13e2 ed3c
00000240: 9d60 fdbc 3ebf 573c 6397 3e3e 5027 3ebe
00000250: d306 853c 24f8 b0bc 7b54 bb3d f81b d53b
00000260: d085 6d3d b912 3fbe 4caf 263d 031e 14bd
00000270: fd90 283d 5aa3 243d fde0 7a3d d3ce b6bc
00000280: ead1 603c c2ec 5c3c 4e71 c0bd f00b aa3d
00000290: a1eb 6bbd 0000 943d 8902 9bbd efaf 83bd
000002a0: 6580 01bd 4a33 113c 9291 75bc d758 673c
000002b0: 6bd7 9a3d 316b d73d fd62 c43d 5b6f b2ba
000002c0: d5df 023d f3cc 1abe a162 a8bd 5e4b fcbb
000002d0: 3602 203e 9a5f 593b 2b70 b23d 6899 b4bc
000002e0: 890f e03c 6f3a 6a3b 5897 d33c e138 a13c
000002f0: 3a62 0e3d 6829 6dbd 2eea e83c 0219 62bd
00000300: ffa0 b03c 2544 5bbd b574 b63d 1162 7a3d
00000310: d4ec a4bc 63dd 17bd 2dbb 113d 5878 9bbc
00000320: 835c a33a 018e 2cbd 4ad5 363c aa1a f0bc
00000330: a569 a4bc 06d1 62bc 5249 38bd 9ba7 03bd
00000340: cf27 2e3d 2547 babd fb44 3b3d bcfc dd3d
00000350: dff3 8f3c 73c7 7bbd 4c34 ffbc 5395 a73b
00000360: c93e 65bc 33e7 333c 6257 09be c8da ddbd
00000370: e41f 583d 0431 d13c 6a13 9c3d 8acf 9c3d
00000380: df12 6fbb 2b1a fabd a07e 11bd afe9 613d
00000390: a614 0cbd dacf 68bd a5a2 4b3d f006 acbc
000003a0: 52c1 8d3b bae4 1dbd 3abb ad3c 376c ad3d
000003b0: c7fd 813d e19e 763d 0442 81bc d92c c33c
000003c0: 828f 44bd ab7c 7bbd bba2 a73c 02b6 993d
000003d0: 484c 793d 79d6 01bd f933 983d c1db 72be
000003e0: c272 ce3c 6867 82bd 920e 26bd ea9e 34bc
000003f0: d05d acbd fc9b 423d fa32 4c3c bb63 f0bb
0.040106595 0.027827736 0.023880567 -0.07850382 -0.030157471 0.047901403 0.074815124 -0.0045430087
0.0061256937 0.0061437427 0.011100386 0.025836153 0.033742715 -0.08653756 -0.08156291 -0.048453186
-0.041144967 0.045599975 -0.21190993 -0.05016935 -0.091711 0.03853774 0.0652966 0.007685455
-0.00025363849 -0.048129927 -0.035799846 0.014954711 -0.053727217 0.049615044 -0.023789614 -0.09504609
0.0510567 0.03948261 0.018642988 0.06825717 0.061137915 0.03138624 0.019920312 -0.023629066
-0.07062033 -0.059821952 0.08487547 -0.0851582 0.057445034 -0.20679526 0.06263728 -0.04753738
-0.077284336 -0.07413194 -0.014212687 0.014448125 -0.12280865 -0.059046037 -0.08188549 -0.035151903
-0.0037620063 0.013362097 0.07649525 0.07787695 -0.070456736 0.005337893 0.029807854 0.09433862
-0.0050608595 -0.081584945 -0.09930755 -0.087126456 -0.024099166 -0.10687743 -0.10763649 -0.049389247
-0.11598871 0.061473314 0.053984333 0.014554549 0.069181696 0.08815077 0.033617463 -0.0059557636
0.005651244 -0.035351742 -0.034524877 -0.102992766 -0.0090943035 -0.039523862 -0.015144202 0.05698015
-0.026396334 -0.06261094 -0.14004318 0.05110771 -0.0935295 -0.04392224 0.008214418 -0.0740658
0.088677354 0.020006659 -0.025262056 -0.079348005 -0.00025139592 -0.080615975 -0.06876975 0.04704889
-0.015536629 -0.06652014 0.0033584465 0.046197176 -0.02831396 0.020949258 0.057995237 -0.13624682
0.014745998 0.0104966285 -0.03751318 -0.021559153 0.0028751027 -0.055165302 -0.06256096 -0.04628024
-0.050308336 -0.012414854 -0.0048369174 -0.0005908237 0.018386515 -0.08411042 -0.032483075 -0.09762537
-0.04011992 -0.010433879 0.054903783 0.008543458 0.0520925 0.011176676 0.02265121 -0.1942745
0.055081572 0.04963606 0.046742424 0.15951753 0.019881284 0.0546879 -0.008440437 0.029038465
-0.030929858 0.013168154 0.18612437 -0.18569684 0.016238606 -0.021602698 0.09146973 0.0065035783
0.05798894 -0.18659486 0.04069452 -0.036161434 0.041153897 0.040194847 0.06124972 -0.022315418
0.013721922 0.013484182 -0.09396611 0.08303058 -0.05759776 0.072265625 -0.07568843 -0.06430041
-0.031616587 0.008862326 -0.01498832 0.014120302 0.07560619 0.10518492 0.09589193 -0.0013613509
0.031951744 -0.15117244 -0.08221937 -0.007699414 0.15625843 0.0033168555 0.087128006 -0.022045806
0.027351158 0.0035740396 0.025829002 0.019680442 0.034761645 -0.057900816 0.028431978 -0.05519963
0.021561144 -0.053531785 0.08908979 0.06112868 -0.02013246 -0.037076365 0.035578895 -0.018978283
0.0012463484 -0.042127613 0.0111592505 -0.02930959 -0.020069906 -0.01384378 -0.0449918 -0.032142263
0.042518433 -0.09095601 0.04572008 0.10839221 0.017572341 -0.061469506 -0.031152867 0.0051142364
-0.01399202 0.010980415 -0.1341224 -0.10832745 0.05276479 0.025536068 0.076208904 0.076567724
-0.0036479754 -0.122120224 -0.03552115 0.0551545 -0.03419938 -0.056838848 0.049715657 -0.020999402
0.004326024 -0.03854821 0.02120744 0.08467906 0.06347232 0.060210112 -0.015778549 0.023825096
-0.047988422 -0.06139819 0.020463338 0.07505418 0.060863763 -0.031698678 0.07431788 -0.23716642
0.025201205 -0.063673794 -0.04054124 -0.011024216 -0.08416331 0.04751204 0.012463326 -0.0073361075

bias f4 [64]
00000000: b87e d5bd 06fb 05bd 20b0 6d3d c51b 203e
00000010: e2dc c6bc 0194 403e 3a78 b93e 441f ab3b
00000020: 7e71 7a3e 608d d13d a319 1a3e 8cfa bfbe
00000030: 09da 8ebd c9bd 7e3e 33ea 323e 0c63 50be
00000040: b7e2 69be 162f 263d 609b b23e 0ce4 80be
00000050: 54b6 773d f295 02be a899 0b3e 8aee 9cbc
00000060: c93a fc3d 8e8b ce3c 181e 273e 1c8e d1bd
00000070: dc97 02be 4c2f edbd 4dd9 d03d c2b1 8f3e
00000080: cd4b 633e ac60 75bd 24a7 d7bd 38ab 0dbe
00000090: d5f3 0dbe dfc3 493d 912d c5bd 479e 8f3d
000000a0: 213d 093f a446 4dbd abd0 83bc 78fa eabd
000000b0: 6084 5b3e 0aef a03c 009e 103e 6519 76bd
000000c0: 9e52 b83e 1f38 c0bd 0133 cf3d 6224 ae3c
000000d0: 414e dc3e cb79 1ebe 3bd4 373e d94f 80bd
000000e0: b0f8 5bbd ef02 f1bd 35e1 163e 1138 d53d
000000f0: 5b7c bd3e 3c6e adbc 077f e4bc c557 a4bd
-0.1042456 -0.032710098 0.058029294 0.15635593 -0.024275247 0.18806459 0.36224538 0.005222233
0.24457356 0.10232043 0.15048842 -0.3749584 -0.06975181 0.24877085 0.17472152 -0.20350283
-0.22840391 0.04057225 0.34884167 -0.25173986 0.060476616 -0.12752512 0.13632834 -0.019156713
0.123159 0.02521303 0.16320074 -0.10232183 -0.12753242 -0.11581287 0.10197697 0.28065306
0.22196884 -0.059906647 -0.105299264 -0.13834846 -0.13862546 0.049259063 -0.09627832 0.07012611
0.536089 -0.050116196 -0.016090712 -0.114735544 0.21437216 0.019645233 0.14122772 -0.06008281
0.36000532 -0.09385704 0.1011715 0.021257583 0.43028453 -0.15476148 0.17952053 -0.0626523
-0.053703964 -0.11768138 0.14734347 0.104110844 0.37008938 -0.021170728 -0.027892603 -0.08024553

weight f4 [2, 64]
00000000: 93f3 5ebb a6b9 34bc 0091 76be af3b ad3d
00000010: 4537 0e3d 67f8 b6bd dc39 26bd bd33 003c
00000020: 5ff0 1abe 0de6 bebc 813e 883c de1e 5b3d
00000030: da01 52bc a8fa 0a3e 24d8 df3d 0548 563d
00000040: 4355 f5bc d744 9e3c 750b 15bd 38d0 e4bc
00000050: a004 1bbe 0626 dcbd 326c 03bd fd38 bbbd
00000060: 9050 e33b b536 d6bd ccbf 483d 8314 dfbc
00000070: 428f 5bbd 6083 a43b 4f71 183d 18c3 f83d
00000080: 4550 0dbd ed31 2a3d 8419 d538 c116 c3bd
00000090: 05a6 4dbd fa72 aebd face 2e3c 123f 933c
000000a0: 3311 87be d75e 4e3d 7b57 d83d c7a1 e63c
000000b0: 1e5b 2b3d f069 d7bd 6df3 25bd f58e 98bd
000000c0: 36ec 52bd 8f35 dfbc fc5a 36bd 2a2a a63d
000000d0: 36ed 853d 2994 5ebd f12f 463d f9a3 cbbd
000000e0: 40fc adbd 8bd9 88bd 47c9 353d c242 14bd
000000f0: 9401 17bc d8a7 aabd 71af 85bd 2aca e83b
00000100: a62e 493d ca58 b6bc 5b62 e93d 739b ee3b
00000110: 1b89 0e3d 618d b3bd 3f6c c5bd e32d 393c
00000120: ed26 893e 5ead 45bd 3fe5 56bd c0c5 463d
00000130: 4192 913c b574 24bc fc6c b83d cb36 d83d
00000140: e0a5 3ebb c92e 513c 0618 d2bd 0c9b a13c
00000150: af6f de3d 1027 c8bd ece7 c4bc 4938 bfbd
00000160: 1944 f4bb 9277 393c 0084 5ebd 1412 0e3b
00000170: 2327 80bd ab3e 083d 3ff4 2e3d 2e5b 453b
00000180: 305f f73d 7eef 7c3d df20 a73c 80fd 83bd
00000190: 5820 f63d 063f 63bd 4f54 8c3c 0787 8b3c
000001a0: 2b3c 8c3e 5a56 9ebd b32b a13d 717c a63d
000001b0: c07e 593b aa3b 67bd c3d6 44bd 7f16 0b3d
000001c0: 9ac4 ec3d ac72 913d 41b8 9ebc d317 993d
000001d0: 99f3 fc3c e223 953d f73e 06bd cc54 cabd
000001e0: 6ff0 cd3c f8fe 9fbd 806b 00bc de56 26bd
000001f0: c23c 2c3c e8ac 10bd 0317 47bd 74da 673c
-0.0034019693 -0.01103059 -0.2407875 0.08458649 0.034720678 -0.08934098 -0.040582523 0.007824835
-0.15130757 -0.023303056 0.016631367 0.053496234 -0.012817824 0.1357218 0.109298974 0.052314777
-0.029947883 0.019319935 -0.03638788 -0.027931318 -0.15138483 -0.1074944 -0.032085605 -0.09141729
0.006937094 -0.10459653 0.049011037 -0.02723146 -0.05360342 0.005020544 0.037217434 0.12146586
-0.03450038 0.04155152 0.00010161384 -0.09525824 -0.050207157 -0.08518024 0.010669464 0.01797441
-0.2638031 0.050383415 0.105635606 0.028153313 0.041834943 -0.10518253 -0.040515352 -0.07449142
-0.0514948 -0.027247218 -0.044520363 0.08113511 0.06539385 -0.054340515 0.048385564 -0.09943385
-0.084953785 -0.06682118 0.044381406 -0.036196478 -0.009216685 -0.08332795 -0.065276034 0.007104178
0.049116753 -0.022259135 0.11395713 0.0072817146 0.034798723 -0.087672 -0.09639787 0.011302444
0.2678751 -0.04826104 -0.05246472 0.048528433 0.017769935 -0.010037591 0.09005162 0.10557326
-0.0029090568 0.012767502 -0.10258488 0.019727252 0.10861146 -0.097730756 -0.02403637 -0.093369074
-0.007454407 0.011320012 -0.054325104 0.0021678256 -0.06257465 0.03326289 0.0427134 0.0030114162
0.120787024 0.061751835 0.020401416 -0.06444836 0.12017888 -0.055480026 0.017130045 0.01703216
0.27389655 -0.07731314 0.07869663 0.08129204 0.003318712 -0.056453384 -0.048056375 0.033957
0.11560936 0.0710195 -0.019374968 0.07475247 0.030877875 0.07282235 -0.03277489 -0.09879455
0.025139062 -0.07812303 -0.00783813 -0.040610187 0.010512533 -0.035321146 -0.04860593 0.014151204

bias f4 [2]
00000000: dba5 403d 5a36 fd3c
0.047033172 0.030909706
